GPU is available
TRAINING MODEL: BATCH_SIZE = 1024, PARTICLE_DIM: 48, EPOCHS: 15, PRTCL_LATENT_SPACE_SIZE: 12
AUTOENCODER
PrtclVAE(
  (mean): Sequential(
    (0): Linear(in_features=59, out_features=512, bias=True)
    (1): Dropout(p=0.1, inplace=False)
    (2): LeakyReLU(negative_slope=0.1)
    (3): Linear(in_features=512, out_features=2048, bias=True)
    (4): Dropout(p=0.1, inplace=False)
    (5): LeakyReLU(negative_slope=0.1)
    (6): Linear(in_features=2048, out_features=1024, bias=True)
    (7): Dropout(p=0.1, inplace=False)
    (8): LeakyReLU(negative_slope=0.1)
    (9): Linear(in_features=1024, out_features=512, bias=True)
    (10): Dropout(p=0.1, inplace=False)
    (11): LeakyReLU(negative_slope=0.1)
    (12): Linear(in_features=512, out_features=256, bias=True)
    (13): Dropout(p=0.1, inplace=False)
    (14): LeakyReLU(negative_slope=0.1)
    (15): Linear(in_features=256, out_features=128, bias=True)
    (16): Dropout(p=0.1, inplace=False)
    (17): LeakyReLU(negative_slope=0.1)
    (18): Linear(in_features=128, out_features=12, bias=True)
  )
  (logvar): Sequential(
    (0): Linear(in_features=59, out_features=512, bias=True)
    (1): Dropout(p=0.1, inplace=False)
    (2): Tanh()
    (3): Linear(in_features=512, out_features=2048, bias=True)
    (4): Dropout(p=0.1, inplace=False)
    (5): Tanh()
    (6): Linear(in_features=2048, out_features=1024, bias=True)
    (7): Dropout(p=0.1, inplace=False)
    (8): Tanh()
    (9): Linear(in_features=1024, out_features=512, bias=True)
    (10): Dropout(p=0.1, inplace=False)
    (11): Tanh()
    (12): Linear(in_features=512, out_features=256, bias=True)
    (13): Dropout(p=0.1, inplace=False)
    (14): Tanh()
    (15): Linear(in_features=256, out_features=128, bias=True)
    (16): Dropout(p=0.1, inplace=False)
    (17): Tanh()
    (18): Linear(in_features=128, out_features=12, bias=True)
  )
  (deembeder): Sequential(
    (0): Linear(in_features=12, out_features=128, bias=True)
    (1): Dropout(p=0.1, inplace=False)
    (2): Tanh()
    (3): Linear(in_features=128, out_features=256, bias=True)
    (4): Dropout(p=0.1, inplace=False)
    (5): Tanh()
    (6): Linear(in_features=256, out_features=512, bias=True)
    (7): Dropout(p=0.1, inplace=False)
    (8): Tanh()
    (9): Linear(in_features=512, out_features=1024, bias=True)
    (10): Dropout(p=0.1, inplace=False)
    (11): Tanh()
    (12): Linear(in_features=1024, out_features=2048, bias=True)
    (13): Dropout(p=0.1, inplace=False)
    (14): Tanh()
    (15): Linear(in_features=2048, out_features=512, bias=True)
    (16): Tanh()
    (17): Linear(in_features=512, out_features=59, bias=True)
  )
)
EMBEDDER
PDGEmbedder(
  (net): Sequential(
    (0): Linear(in_features=870, out_features=1024, bias=True)
    (1): Tanh()
    (2): Linear(in_features=1024, out_features=512, bias=True)
    (3): Tanh()
    (4): Linear(in_features=512, out_features=256, bias=True)
    (5): Tanh()
    (6): Linear(in_features=256, out_features=48, bias=True)
    (7): Tanh()
  )
)
DEEMBEDDER
PDGDeembedder(
  (net): Sequential(
    (0): Linear(in_features=48, out_features=256, bias=True)
    (1): Tanh()
    (2): Linear(in_features=256, out_features=512, bias=True)
    (3): Tanh()
    (4): Linear(in_features=512, out_features=1024, bias=True)
    (5): Tanh()
    (6): Linear(in_features=1024, out_features=870, bias=True)
    (7): Tanh()
  )
)
Deembeder acc: 1/870
Epoch: 0/15 :: Batch: 0/1112 :: train loss: 0.033692 :: kld loss: 0.029717 :: mse loss: 0.033662 :: valid loss: 0.032391 :: err kld: 66541.965909 :: err wass: 54.792900
Deembeder acc: 83/870
Epoch: 0/15 :: Batch: 100/1112 :: train loss: 0.013771 :: kld loss: 0.011309 :: mse loss: 0.013759 :: valid loss: 0.013684 :: err kld: 59452.981008 :: err wass: 43.128300
…
