GPU is available
TRAINING MODEL: BATCH_SIZE = 1024, PARTICLE_DIM: 48, EPOCHS: 15, PRTCL_LATENT_SPACE_SIZE: 12
AUTOENCODER
PrtclVAE(
  (mean): Sequential(
    (0): Linear(in_features=59, out_features=512, bias=True)
    (1): Dropout(p=0.1, inplace=False)
    (2): Tanh()
    (3): Linear(in_features=512, out_features=2048, bias=True)
    (4): Dropout(p=0.1, inplace=False)
    (5): Tanh()
    (6): Linear(in_features=2048, out_features=1024, bias=True)
    (7): Dropout(p=0.1, inplace=False)
    (8): Tanh()
    (9): Linear(in_features=1024, out_features=512, bias=True)
    (10): Dropout(p=0.1, inplace=False)
    (11): Tanh()
    (12): Linear(in_features=512, out_features=256, bias=True)
    (13): Dropout(p=0.1, inplace=False)
    (14): Tanh()
    (15): Linear(in_features=256, out_features=128, bias=True)
    (16): Dropout(p=0.1, inplace=False)
    (17): Tanh()
    (18): Linear(in_features=128, out_features=12, bias=True)
  )
  (logvar): Sequential(
    (0): Linear(in_features=59, out_features=512, bias=True)
    (1): Dropout(p=0.1, inplace=False)
    (2): Tanh()
    (3): Linear(in_features=512, out_features=2048, bias=True)
    (4): Dropout(p=0.1, inplace=False)
    (5): Tanh()
    (6): Linear(in_features=2048, out_features=1024, bias=True)
    (7): Dropout(p=0.1, inplace=False)
    (8): Tanh()
    (9): Linear(in_features=1024, out_features=512, bias=True)
    (10): Dropout(p=0.1, inplace=False)
    (11): Tanh()
    (12): Linear(in_features=512, out_features=256, bias=True)
    (13): Dropout(p=0.1, inplace=False)
    (14): Tanh()
    (15): Linear(in_features=256, out_features=128, bias=True)
    (16): Dropout(p=0.1, inplace=False)
    (17): Tanh()
    (18): Linear(in_features=128, out_features=12, bias=True)
  )
  (deembeder): Sequential(
    (0): Linear(in_features=12, out_features=128, bias=True)
    (1): Dropout(p=0.1, inplace=False)
    (2): Tanh()
    (3): Linear(in_features=128, out_features=256, bias=True)
    (4): Dropout(p=0.1, inplace=False)
    (5): Tanh()
    (6): Linear(in_features=256, out_features=512, bias=True)
    (7): Dropout(p=0.1, inplace=False)
    (8): Tanh()
    (9): Linear(in_features=512, out_features=1024, bias=True)
    (10): Dropout(p=0.1, inplace=False)
    (11): Tanh()
    (12): Linear(in_features=1024, out_features=2048, bias=True)
    (13): Dropout(p=0.1, inplace=False)
    (14): Tanh()
    (15): Linear(in_features=2048, out_features=512, bias=True)
    (16): Tanh()
    (17): Linear(in_features=512, out_features=59, bias=True)
  )
)
EMBEDDER
PDGEmbedder(
  (net): Sequential(
    (0): Linear(in_features=870, out_features=1024, bias=True)
    (1): Tanh()
    (2): Linear(in_features=1024, out_features=512, bias=True)
    (3): Tanh()
    (4): Linear(in_features=512, out_features=256, bias=True)
    (5): Tanh()
    (6): Linear(in_features=256, out_features=48, bias=True)
    (7): Tanh()
  )
)
DEEMBEDDER
PDGDeembedder(
  (net): Sequential(
    (0): Linear(in_features=48, out_features=256, bias=True)
    (1): Tanh()
    (2): Linear(in_features=256, out_features=512, bias=True)
    (3): Tanh()
    (4): Linear(in_features=512, out_features=1024, bias=True)
    (5): Tanh()
    (6): Linear(in_features=1024, out_features=870, bias=True)
    (7): Tanh()
  )
)
Deembeder acc: 1/870
Epoch: 0/15 :: Batch: 0/1112 :: train loss: 0.037919 :: kld loss: 0.018038 :: mse loss: 0.037901 :: valid loss: 0.036048 :: err kld: 70356.810643 :: err wass: 56.202500
Deembeder acc: 54/870
Epoch: 0/15 :: Batch: 100/1112 :: train loss: 0.010883 :: kld loss: 1.047756 :: mse loss: 0.009835 :: valid loss: 0.010614 :: err kld: 51854.361983 :: err wass: 40.769800
…
