GPU not available, CPU used
TRAINING MODEL: BATCH_SIZE = 1024, PARTICLE_DIM: 48, EPOCHS: 7, PRTCL_LATENT_SPACE_SIZE: 22
GENERATOR
PrtclWGANGenerator(
  (_PrtclWGANGenerator__net): Sequential(
    (0): Linear(in_features=22, out_features=128, bias=True)
    (1): Dropout(p=0.1, inplace=False)
    (2): Tanh()
    (3): Linear(in_features=128, out_features=256, bias=True)
    (4): Dropout(p=0.1, inplace=False)
    (5): Tanh()
    (6): Linear(in_features=256, out_features=512, bias=True)
    (7): Dropout(p=0.1, inplace=False)
    (8): Tanh()
    (9): Linear(in_features=512, out_features=1024, bias=True)
    (10): Dropout(p=0.1, inplace=False)
    (11): Tanh()
    (12): Linear(in_features=1024, out_features=118, bias=True)
    (13): Dropout(p=0.1, inplace=False)
    (14): Tanh()
    (15): Linear(in_features=118, out_features=59, bias=True)
  )
)
DISCRIMINATOR
PrtclWGANDiscriminator(
  (_PrtclWGANDiscriminator__net): Sequential(
    (0): Linear(in_features=59, out_features=1024, bias=True)
    (1): Dropout(p=0.1, inplace=False)
    (2): Tanh()
    (3): Linear(in_features=1024, out_features=512, bias=True)
    (4): Dropout(p=0.1, inplace=False)
    (5): Tanh()
    (6): Linear(in_features=512, out_features=256, bias=True)
    (7): Dropout(p=0.1, inplace=False)
    (8): Tanh()
    (9): Linear(in_features=256, out_features=128, bias=True)
    (10): Dropout(p=0.1, inplace=False)
    (11): Tanh()
    (12): Linear(in_features=128, out_features=16, bias=True)
    (13): Tanh()
    (14): Linear(in_features=16, out_features=1, bias=True)
  )
)
EMBEDDER
PDGEmbedder(
  (net): Sequential(
    (0): Linear(in_features=870, out_features=1024, bias=True)
    (1): Tanh()
    (2): Linear(in_features=1024, out_features=512, bias=True)
    (3): Tanh()
    (4): Linear(in_features=512, out_features=256, bias=True)
    (5): Tanh()
    (6): Linear(in_features=256, out_features=256, bias=True)
    (7): Tanh()
    (8): Linear(in_features=256, out_features=48, bias=True)
    (9): Tanh()
  )
)
DEEMBEDDER
PDGDeembedder(
  (net): Sequential(
    (0): Linear(in_features=48, out_features=256, bias=True)
    (1): Tanh()
    (2): Linear(in_features=256, out_features=512, bias=True)
    (3): Tanh()
    (4): Linear(in_features=512, out_features=1024, bias=True)
    (5): Tanh()
    (6): Linear(in_features=1024, out_features=2048, bias=True)
    (7): Tanh()
    (8): Linear(in_features=2048, out_features=870, bias=True)
    (9): Tanh()
  )
)
Deembeder acc: 2/870
Epoch: 0/7 :: Batch: 0/1112 :: generator loss: -0.017098 :: critic loss: 0.878239 :: err kld: 79112.477052 :: err wass: 60.768600
Deembeder acc: 129/870
Epoch: 0/7 :: Batch: 100/1112 :: generator loss: 0.124905 :: critic loss: -0.092887 :: err kld: 48642.893635 :: err wass: 40.670800
Deembeder acc: 671/870
Epoch: 0/7 :: Batch: 200/1112 :: generator loss: 0.560771 :: critic loss: -0.074604 :: err kld: 47144.678646 :: err wass: 41.998500
…
