GPU is available
TRAINING MODEL: BATCH_SIZE = 1024, PARTICLE_DIM: 48, EPOCHS: 10, PRTCL_LATENT_SPACE_SIZE: 12
GENERATOR
PrtclGANGenerator(
  (_PrtclGANGenerator__net): Sequential(
    (0): Linear(in_features=12, out_features=128, bias=True)
    (1): Tanh()
    (2): Linear(in_features=128, out_features=256, bias=True)
    (3): Tanh()
    (4): Linear(in_features=256, out_features=1024, bias=True)
    (5): Tanh()
    (6): Linear(in_features=1024, out_features=512, bias=True)
    (7): Tanh()
    (8): Linear(in_features=512, out_features=118, bias=True)
    (9): Tanh()
    (10): Linear(in_features=118, out_features=59, bias=True)
  )
)
DISCRIMINATOR
PrtclGANDiscriminator(
  (_PrtclGANDiscriminator__net): Sequential(
    (0): Linear(in_features=59, out_features=118, bias=True)
    (1): Dropout(p=0.1, inplace=False)
    (2): Tanh()
    (3): Linear(in_features=118, out_features=512, bias=True)
    (4): Linear(in_features=512, out_features=512, bias=True)
    (5): Dropout(p=0.1, inplace=False)
    (6): Tanh()
    (7): Linear(in_features=512, out_features=256, bias=True)
    (8): Dropout(p=0.1, inplace=False)
    (9): Tanh()
    (10): Linear(in_features=256, out_features=128, bias=True)
    (11): Dropout(p=0.1, inplace=False)
    (12): Tanh()
    (13): Linear(in_features=128, out_features=32, bias=True)
    (14): Tanh()
    (15): Linear(in_features=32, out_features=1, bias=True)
    (16): Sigmoid()
  )
)
EMBEDDER
PDGEmbedder(
  (net): Sequential(
    (0): Linear(in_features=870, out_features=1024, bias=True)
    (1): Tanh()
    (2): Linear(in_features=1024, out_features=512, bias=True)
    (3): Tanh()
    (4): Linear(in_features=512, out_features=256, bias=True)
    (5): Tanh()
    (6): Linear(in_features=256, out_features=256, bias=True)
    (7): Tanh()
    (8): Linear(in_features=256, out_features=48, bias=True)
    (9): Tanh()
  )
)
DEEMBEDDER
PDGDeembedder(
  (net): Sequential(
    (0): Linear(in_features=48, out_features=256, bias=True)
    (1): Tanh()
    (2): Linear(in_features=256, out_features=512, bias=True)
    (3): Tanh()
    (4): Linear(in_features=512, out_features=1024, bias=True)
    (5): Tanh()
    (6): Linear(in_features=1024, out_features=2048, bias=True)
    (7): Tanh()
    (8): Linear(in_features=2048, out_features=870, bias=True)
    (9): Tanh()
  )
)
Deembeder acc: 0/870
Epoch: 0/10 :: Batch: 0/1112 :: generator loss: 0.242014 :: discriminator loss: 0.250327 :: err kld: 67368.886533 :: err wass: 51.444600
Deembeder acc: 126/870
Epoch: 0/10 :: Batch: 100/1112 :: generator loss: 0.236898 :: discriminator loss: 0.244745 :: err kld: 73429.477130 :: err wass: 50.334200
Deembeder acc: 669/870
…
