…
import sys; print('Python %s on %s' % (sys.version, sys.platform))
sys.path.extend(['/home/dan/MEGA/_Uni/praca_mgr/current/neural_networks'])
PyDev console: starting.
Python 3.9.5 (default, May 11 2021, 08:20:37) 
[GCC 10.3.0] on linux
runfile('/home/dan/MEGA/_Uni/praca_mgr/current/neural_networks/single_prtcl_generator_wgan_pytorch/main.py', wdir='/home/dan/MEGA/_Uni/praca_mgr/current/neural_networks/single_prtcl_generator_wgan_pytorch')
GPU is available
TRAINING MODEL: BATCH_SIZE = 1024, PARTICLE_DIM: 48, EPOCHS: 15, PRTCL_LATENT_SPACE_SIZE: 12
GENERATOR
PrtclGANGenerator(
  (_PrtclGANGenerator__net): Sequential(
    (0): Linear(in_features=12, out_features=128, bias=True)
    (1): Dropout(p=0.1, inplace=False)
    (2): Tanh()
    (3): Linear(in_features=128, out_features=256, bias=True)
    (4): Dropout(p=0.1, inplace=False)
    (5): Tanh()
    (6): Linear(in_features=256, out_features=512, bias=True)
    (7): Dropout(p=0.1, inplace=False)
    (8): Tanh()
    (9): Linear(in_features=512, out_features=1024, bias=True)
    (10): Dropout(p=0.1, inplace=False)
    (11): Tanh()
    (12): Linear(in_features=1024, out_features=2048, bias=True)
    (13): Dropout(p=0.1, inplace=False)
    (14): Tanh()
    (15): Linear(in_features=2048, out_features=512, bias=True)
    (16): Dropout(p=0.1, inplace=False)
    (17): Tanh()
    (18): Linear(in_features=512, out_features=59, bias=True)
  )
)
DISCRIMINATOR
PrtclGANDiscriminator(
  (_PrtclGANDiscriminator__net): Sequential(
    (0): Linear(in_features=59, out_features=512, bias=True)
    (1): Dropout(p=0.1, inplace=False)
    (2): Tanh()
    (3): Linear(in_features=512, out_features=2048, bias=True)
    (4): Dropout(p=0.1, inplace=False)
    (5): Tanh()
    (6): Linear(in_features=2048, out_features=1024, bias=True)
    (7): Dropout(p=0.1, inplace=False)
    (8): Tanh()
    (9): Linear(in_features=1024, out_features=512, bias=True)
    (10): Dropout(p=0.1, inplace=False)
    (11): Tanh()
    (12): Linear(in_features=512, out_features=256, bias=True)
    (13): Dropout(p=0.1, inplace=False)
    (14): Tanh()
    (15): Linear(in_features=256, out_features=128, bias=True)
    (16): Dropout(p=0.1, inplace=False)
    (17): Tanh()
    (18): Linear(in_features=128, out_features=32, bias=True)
    (19): Dropout(p=0.1, inplace=False)
    (20): Tanh()
    (21): Linear(in_features=32, out_features=1, bias=True)
    (22): Sigmoid()
  )
)
EMBEDDER
PDGEmbedder(
  (net): Sequential(
    (0): Linear(in_features=870, out_features=1024, bias=True)
    (1): Tanh()
    (2): Linear(in_features=1024, out_features=512, bias=True)
    (3): Tanh()
    (4): Linear(in_features=512, out_features=256, bias=True)
    (5): Tanh()
    (6): Linear(in_features=256, out_features=48, bias=True)
    (7): Tanh()
  )
)
DEEMBEDDER
PDGDeembedder(
  (net): Sequential(
    (0): Linear(in_features=48, out_features=256, bias=True)
    (1): Tanh()
    (2): Linear(in_features=256, out_features=512, bias=True)
    (3): Tanh()
    (4): Linear(in_features=512, out_features=1024, bias=True)
    (5): Tanh()
    (6): Linear(in_features=1024, out_features=870, bias=True)
    (7): Tanh()
  )
)
Deembeder acc: 1/870
/home/dan/MEGA/_Uni/praca_mgr/current/neural_networks/i_trainer/i_trainer.py:254: UserWarning: You have mixed positional and keyword arguments, some input may be discarded.
  fig.legend(subplot_handlers, labels=['Dane syntetyczne', 'Dane rzeczywiste'], loc="lower right")
Epoch: 0/15 :: Batch: 0/1112 :: generator loss: -0.456396 :: critic loss: 0.984982 :: err kld: 67801.658814 :: err wass: 55.747100
…
