GPU is available
TRAINING MODEL: BATCH_SIZE = 1024, PARTICLE_DIM: 48, EPOCHS: 15, PRTCL_LATENT_SPACE_SIZE: 12
GENERATOR
PrtclGANGenerator(
  (_PrtclGANGenerator__net): Sequential(
    (0): Linear(in_features=12, out_features=128, bias=True)
    (1): Dropout(p=0.1, inplace=False)
    (2): LeakyReLU(negative_slope=0.1)
    (3): Linear(in_features=128, out_features=256, bias=True)
    (4): Dropout(p=0.1, inplace=False)
    (5): LeakyReLU(negative_slope=0.1)
    (6): Linear(in_features=256, out_features=512, bias=True)
    (7): Dropout(p=0.1, inplace=False)
    (8): LeakyReLU(negative_slope=0.1)
    (9): Linear(in_features=512, out_features=1024, bias=True)
    (10): Dropout(p=0.1, inplace=False)
    (11): LeakyReLU(negative_slope=0.1)
    (12): Linear(in_features=1024, out_features=2048, bias=True)
    (13): Dropout(p=0.1, inplace=False)
    (14): LeakyReLU(negative_slope=0.1)
    (15): Linear(in_features=2048, out_features=512, bias=True)
    (16): Dropout(p=0.1, inplace=False)
    (17): LeakyReLU(negative_slope=0.1)
    (18): Linear(in_features=512, out_features=59, bias=True)
  )
)
DISCRIMINATOR
PrtclGANDiscriminator(
  (_PrtclGANDiscriminator__net): Sequential(
    (0): Linear(in_features=59, out_features=512, bias=True)
    (1): Dropout(p=0.1, inplace=False)
    (2): LeakyReLU(negative_slope=0.1)
    (3): Linear(in_features=512, out_features=2048, bias=True)
    (4): Dropout(p=0.1, inplace=False)
    (5): LeakyReLU(negative_slope=0.1)
    (6): Linear(in_features=2048, out_features=1024, bias=True)
    (7): Dropout(p=0.1, inplace=False)
    (8): LeakyReLU(negative_slope=0.1)
    (9): Linear(in_features=1024, out_features=512, bias=True)
    (10): Dropout(p=0.1, inplace=False)
    (11): LeakyReLU(negative_slope=0.1)
    (12): Linear(in_features=512, out_features=256, bias=True)
    (13): Dropout(p=0.1, inplace=False)
    (14): LeakyReLU(negative_slope=0.1)
    (15): Linear(in_features=256, out_features=128, bias=True)
    (16): Dropout(p=0.1, inplace=False)
    (17): LeakyReLU(negative_slope=0.1)
    (18): Linear(in_features=128, out_features=32, bias=True)
    (19): Dropout(p=0.1, inplace=False)
    (20): LeakyReLU(negative_slope=0.1)
    (21): Linear(in_features=32, out_features=1, bias=True)
    (22): Sigmoid()
  )
)
EMBEDDER
PDGEmbedder(
  (net): Sequential(
    (0): Linear(in_features=870, out_features=1024, bias=True)
    (1): Tanh()
    (2): Linear(in_features=1024, out_features=512, bias=True)
    (3): Tanh()
    (4): Linear(in_features=512, out_features=256, bias=True)
    (5): Tanh()
    (6): Linear(in_features=256, out_features=48, bias=True)
    (7): Tanh()
  )
)
DEEMBEDDER
PDGDeembedder(
  (net): Sequential(
    (0): Linear(in_features=48, out_features=256, bias=True)
    (1): Tanh()
    (2): Linear(in_features=256, out_features=512, bias=True)
    (3): Tanh()
    (4): Linear(in_features=512, out_features=1024, bias=True)
    (5): Tanh()
    (6): Linear(in_features=1024, out_features=870, bias=True)
    (7): Tanh()
  )
)
Deembeder acc: 2/870
/home/dan/MEGA/_Uni/praca_mgr/current/neural_networks/i_trainer/i_trainer.py:254: UserWarning: You have mixed positional and keyword arguments, some input may be discarded.
  fig.legend(subplot_handlers, labels=['Dane syntetyczne', 'Dane rzeczywiste'], loc="lower right")
Epoch: 0/15 :: Batch: 0/1112 :: generator loss: -0.470597 :: critic loss: 0.999021 :: err kld: 74016.257520 :: err wass: 54.246400
…
